model.pth (torch, 179420 bytes, 9 tensors)

cnn_model.0.weight f4 [6, 3, 5, 5]
0	0x3e0f44df	0.13991116
1	0x3e18038f	0.14845107
2	0x3d6fc24f	0.058534916
3	0x3da67cd2	0.08129276
4	0x3dc3ac0c	0.095543
5	0xbcdb7902	-0.0267911
6	0xbd860998	-0.065447986
7	0x3de979a0	0.11400151
8	0xbd911c23	-0.07085445
9	0x3dd9b02a	0.10629304
10	0x3ab6c9a7	0.0013945595
11	0xbd26b29b	-0.040697675
12	0xbd1048ab	-0.03522555
13	0x3d59ccbd	0.05317377
14	0xbd88e509	-0.0668431
15	0x3cb47031	0.022026153
16	0x3ddd55a2	0.10807349
17	0x3e167023	0.14691214
18	0x3ba27769	0.0049580825
19	0x3dee2f04	0.11630061
20	0xbbcd2455	-0.0062604346
21	0x3c285102	0.01027322
22	0x3dfaa16f	0.12237822
23	0x3d602f67	0.054732706
24	0xbdb7e9c5	-0.08980135
25	0x3d72c75a	0.059272148
26	0xbd1409fb	-0.03614233
27	0x3ceb3e7f	0.028716324
28	0xbdcf66c0	-0.1012702
29	0xbde4bcf1	-0.1116885
30	0xbd45c7a6	-0.048286103
31	0xbdbb7516	-0.09153192
32	0x3ceecf69	0.029151635
33	0xbd5d43b8	-0.05401966
34	0x3dd45ac1	0.103688724
35	0xbbf1ad05	-0.007375362
36	0xbd4381cf	-0.047731217
37	0xbd3baeaa	-0.04582087
38	0xbdb19eb5	-0.08672849
39	0x3d5a719b	0.053331
40	0x3ddfddfd	0.10931013
41	0xbc5a5530	-0.013325974
42	0x3d8385a1	0.06421972
43	0x3d9f646f	0.07782828
44	0xbd66f449	-0.056385312
45	0x3d4e51db	0.050371032
46	0xbda39445	-0.079872645
47	0x3a73b8dd	0.0009297261
48	0xbd8004f0	-0.06250942
49	0xbdcacf1f	-0.099027865
50	0x3ca8b89a	0.020595837
51	0x3ca14395	0.019685546
52	0x3d98d0b8	0.07461685
53	0xbd2f6aee	-0.042826585
54	0xbd53011f	-0.05151474
55	0x3c45cc6e	0.012072666
56	0x3d41782e	0.047233753
57	0xbdbe6f3d	-0.09298561
58	0x3d44305c	0.04789768
59	0x3ce384f8	0.027773365
60	0x3cf54b87	0.02994324
61	0x3d198bd9	0.037486885
62	0xbdc106c4	-0.094251186
63	0x3d3a235c	0.045443878
64	0xbde47c74	-0.1115655
65	0xbdd55afd	-0.10417745
66	0xbdba5b4b	-0.09099444
67	0xbda8201f	-0.082092516
68	0xbe1e7555	-0.15474446
69	0xbddc04b5	-0.10743085
70	0x3d62ee0e	0.055402808
71	0xbd853450	-0.065041184
72	0x3db6bc40	0.089226246
73	0xbd893786	-0.067000434
74	0xbdd6c747	-0.10487228
75	0x3ddbf8df	0.10740828
76	0x3e0508ce	0.1299164
77	0x3d32650b	0.043553393
78	0x3e001407	0.1250764
79	0x3d681a77	0.056665864
80	0xbda2adfe	-0.079433426
81	0x3dd97ec8	0.10619885
82	0xbc6e87da	-0.014558757
83	0x3d428730	0.047492206
84	0xbdec85f5	-0.11548988
85	0x3c96b12f	0.018395035
86	0xbdc2b2c4	-0.09506753
87	0xbd8e0507	-0.06934553
88	0xbdd5198a	-0.10405262
89	0x3d2c33a4	0.042041436
90	0xbdffb787	-0.12486177
91	0xbc89c363	-0.0168168
92	0xbd83204c	-0.064026445
93	0x3d317a6a	0.043329634
94	0xbca4473b	-0.020053497
95	0xbc3265ea	-0.010888556
96	0xbde4b62c	-0.11167559
97	0x3d3c7a4f	0.04601508
98	0xbcb54458	-0.022127315
99	0x3d053e69	0.032530222
100	0x3d713af2	0.058894105
101	0x3c5004dc	0.012696471
102	0xbd4b5be1	-0.04964817
103	0x3c809d7c	0.015700094
104	0xbdcab54d	-0.09897862
105	0xbdb73cbd	-0.08947132
106	0x3b0684b8	0.0020525884
107	0x3be7fde2	0.0070798257
108	0xbd8fffde	-0.07031225
109	0x3c9bc196	0.019013207
110	0x3d9720bd	0.07379291
111	0xbcf73aa3	-0.030179327
112	0x3d61792e	0.055047207
113	0xbc018d61	-0.0079072425
114	0xbd26f9ab	-0.040765446
115	0x3dbf7284	0.09348014
116	0x3ce08664	0.027407832
117	0x3d59f423	0.053211343
118	0xbd41be38	-0.047300547
119	0x3d6c4896	0.05768641
120	0x3caa73f2	0.02080724
121	0x3c56dfdf	0.013114898
122	0x3d323937	0.043511596
123	0xbe0800d0	-0.1328156
124	0xbc11f717	-0.0089090085
125	0x3c8bac3d	0.017049903
126	0x3e0493ad	0.12946959
127	0x3c3aafd7	0.011394463
128	0x3de829c7	0.113360934
129	0x3e1ec6d3	0.15505533
130	0xbdce50e6	-0.10074024
131	0x3bca7560	0.006178543
132	0x3de56d44	0.112024814
133	0x3d874c2e	0.06606327
134	0x3d4cb178	0.049973935
135	0x3d58a57a	0.052892186
136	0x3dd736ae	0.10508476
137	0x3bc7356f	0.006079368
138	0x3cf3b75a	0.029750515
139	0x3dca4cc9	0.09877927
140	0xbd0a4ce6	-0.033764742
141	0x3ddbe4cd	0.10737
142	0x3d21c592	0.03949506
143	0x3cf475f5	0.029841403
144	0x3db35922	0.08757235
145	0xbdba6629	-0.09101517
146	0xbcfc0a38	-0.030766591
147	0x3e011c45	0.1260844
148	0xbce8dc76	-0.028425436
149	0x3d5b183b	0.053489905
150	0x3c732389	0.014840015
151	0xbd8f4291	-0.069951184
152	0xbcfb44cd	-0.030672455
153	0xbd2a79eb	-0.041620176
154	0xbd362063	-0.04446448
155	0x3d59a353	0.053134274
156	0x3d868e2e	0.065700874
157	0xbd91fdf5	-0.071285166
158	0xbd8d4751	-0.06898368
159	0xbd390466	-0.04517021
160	0x3db9b514	0.09067741
161	0xbc5e6f79	-0.013576382
162	0x3db82ab6	0.089925215
163	0x3e1f1925	0.15536936
164	0x3d4055c5	0.046956796
165	0x3ddab7b3	0.10679569
166	0xbdc33bdd	-0.095329024
167	0xbd98dea4	-0.0746434
168	0x3db0749d	0.08615992
169	0x3dad82fa	0.084722474
170	0x3d9d17fd	0.07670591
171	0x3cf9881f	0.030460415
172	0x3b7a7066	0.0038213967
173	0x3debc31c	0.115118235
174	0xbde1f749	-0.11033494
175	0xbd44352f	-0.047902282
176	0x3b231c66	0.0024888753
177	0x3d134c43	0.0359614
178	0x3c41f3a3	0.011837873
179	0x3df1c51d	0.118051745
180	0x3cf9af13	0.03047899
181	0x3d56ffcd	0.052490044
182	0xbe05d043	-0.13067727
183	0xbd85fca8	-0.06542331
184	0x3d450903	0.048104297
185	0x3d37de92	0.044889994
186	0x3d9f6930	0.07783735
187	0xbce2c422	-0.027681414
188	0x3d239f45	0.039946813
189	0xbd7e656e	-0.06210845
190	0xbd88b946	-0.06675963
191	0xbd200e69	-0.039076243
192	0xbd861001	-0.06546021
193	0xbdc12c45	-0.09432272
194	0xbdd07007	-0.101776175
195	0x3d91fa2c	0.071277946
196	0xbd5f435a	-0.05450759
197	0xbcc9b9a8	-0.02462466
198	0x3d7f52a7	0.062334683
199	0xbca3d01b	-0.019996693
200	0x3e35301e	0.17694137
201	0x3e0fe9a1	0.14053966
202	0xbb6f736e	-0.0036537307
203	0x3e124d1c	0.14287227
204	0x3e12200c	0.14270037
205	0x3de4ea66	0.111775205
206	0x3b29d51c	0.0025914377
207	0x3da0b088	0.07846171
208	0x3d0ca9a8	0.034341484
209	0x3d160569	0.036626253
210	0x3da27eb9	0.07934327
211	0x3e095dc5	0.13414676
212	0x3d18315b	0.037156444
213	0x3dc5749c	0.09641382
214	0x3e18771a	0.14889184
215	0x3e313e6e	0.17308971
216	0x3c521483	0.012822273
217	0x3dc6dec8	0.09710461
218	0x3e0f8e47	0.14019118
219	0x3ce74016	0.0282288
220	0xbd802b74	-0.06258288
221	0xbd5b386f	-0.053520616
222	0x3d9bbddd	0.07604573
223	0x3d499f91	0.04922444
224	0xbc951fa1	-0.018203558
225	0xbd96043a	-0.07325025
226	0xbda81e67	-0.08208924
227	0xbdab6025	-0.083679475
228	0x3d32835a	0.043582298
229	0xbe300b5c	-0.17191833
230	0xbe01453e	-0.1262407
231	0xbde6ca00	-0.11268997
232	0xbdc5f02d	-0.096649505
233	0xbe1d423d	-0.15357299
234	0xbd67bc88	-0.05657628
235	0xbe2f3eb1	-0.17113759
236	0x3c8c5b05	0.017133245
237	0xbe32c093	-0.17456274
238	0xbe2f465b	-0.17116682
239	0xbbf98375	-0.007614548
240	0x3b71586b	0.0036826383
241	0xbe26dd32	-0.16295317
242	0xbd048973	-0.032357644
243	0xbde9ab97	-0.11409681
244	0xbafd95ef	-0.0019347052
245	0x3c1bf3fe	0.0095186215
246	0xbd36a496	-0.044590555
247	0xbe12b482	-0.14326671
248	0xbe27d9c4	-0.16391665
249	0xbde42477	-0.111397676
250	0x3de2f7ef	0.11082446
251	0x3cd04054	0.025421299
252	0x3d1b1108	0.03785804
253	0x3c93d482	0.018045668
254	0xbc25279d	-0.010080245
255	0x3dac1402	0.08402254

cnn_model.0.bias f4 [6]
0	0xbd9b4032	-0.07580604
1	0xbc945ff8	-0.018112168
2	0xbbe330c8	-0.0069333054
3	0x3cfefde0	0.031126916
4	0xbcbbf545	-0.022944102
5	0xbc825f57	-0.015914602

cnn_model.3.weight f4 [16, 6, 5, 5]
0	0xbce61425	-0.028085778
1	0xbc0d17d2	-0.008611636
2	0x3c7d519a	0.01546135
3	0x3d8ce848	0.06880242
4	0xbd1826a1	-0.037146214
5	0xbca70e99	-0.020392703
6	0x3d82301b	0.06356832
7	0x3bc67e91	0.0060575684
8	0xbd4d0590	-0.050054133
9	0xbc393d4c	-0.011306118
10	0xbda7e17c	-0.081973046
11	0xbd6a1f85	-0.057158966
12	0xbd699364	-0.05702533
13	0x3be952ab	0.0071204505
14	0x3d67bc71	0.056576196
15	0xbc906ee9	-0.017631011
16	0xbda70d54	-0.08156839
17	0xbda27090	-0.07931626
18	0x3aefeb56	0.0018304389
19	0x3d81c07d	0.06335542
20	0x3bb7b19e	0.0056058904
21	0xbd0c48fd	-0.034249295
22	0x3d5a4147	0.05328491
23	0x3d4b0289	0.049562965
24	0x3d702b7b	0.058635216
25	0xbd893add	-0.067006804
26	0xbd1c3952	-0.038140602
27	0xbd1a97f1	-0.03774256
28	0xbcafcad6	-0.021459024
29	0xbd1be474	-0.038059667
30	0xbc0c88a7	-0.008577502
31	0xbd5f2a5a	-0.05448375
32	0x3d0c648a	0.03427557
33	0x3d86ee3f	0.065884106
34	0xbcad626a	-0.021165092
35	0xbd9b5caa	-0.07586034
36	0xbd63593c	-0.055505022
37	0xbd82882a	-0.063736275
38	0xbc580592	-0.013184922
39	0xbd85a2fa	-0.06525226
40	0xbd891290	-0.06692994
41	0x3da839f1	0.082141764
42	0x3d0ab032	0.03385944
43	0x3d8a00b8	0.06738418
44	0x3cbe2e50	0.023215443
45	0x3d2976a2	0.041372903
46	0xb9edea8d	-0.00045378917
47	0xbd3e7fe1	-0.046508674
48	0xbbcbcfd8	-0.0062198453
49	0xbd9a82c4	-0.07544473
50	0x3d2d6ecd	0.042341996
51	0xbceffe66	-0.029296111
52	0xbc9e5b6b	-0.0193307
53	0x3cb6e2ad	0.022324884
54	0x3cbfef8c	0.023429655
55	0xbd41a1f3	-0.047273587
56	0x3cb51963	0.022106832
57	0x3d262177	0.04055926
58	0xbda3b7a1	-0.07994009
59	0xbd87ca85	-0.066304244
60	0x39f0a144	0.0004589652
61	0xbd64bcc0	-0.05584407
62	0xbc8a6961	-0.016895952
63	0xbc4630e5	-0.012096618
64	0x3ce60a1a	0.028080989
65	0x3ce43b5f	0.027860342
66	0x3cc25703	0.023723131
67	0x3d863fd2	0.065551415
68	0x3d1e97b6	0.0387189
69	0xbd619cc1	-0.055081133
70	0x3c0fe16a	0.00878177
71	0xbd88bddd	-0.066768385
72	0xbd3a0bfd	-0.04542159
73	0xbd3e8f03	-0.046523105
74	0x3c36c4a6	0.011155283
75	0xbda25952	-0.07927193
76	0xbd3830bf	-0.044968363
77	0x3cf804a1	0.030275645
78	0x3d0a84ae	0.03381794
79	0xbdb2642a	-0.08710511
80	0xbd01a83a	-0.031654574
81	0x3cb6e9f2	0.02232835
82	0x3d085b7e	0.03329038
83	0x3d12cf01	0.035841946
84	0xbbd84209	-0.006599669
85	0xbd984831	-0.074356444
86	0xbc55f17d	-0.013058064
87	0x3d9d9715	0.07694832
88	0x3d5155fb	0.051107388
89	0xbd911063	-0.07083204
90	0x3d4814d9	0.048848007
91	0xbcff4f31	-0.031165691
92	0x3dc5f178	0.09665197
93	0x3d958347	0.0730043
94	0xbd849596	-0.06473844
95	0x3da1b787	0.07896333
96	0x3d28f688	0.041250736
97	0x3c2d711f	0.010586052
98	0x3d0595c5	0.032613534
99	0x3d1c81be	0.03820967
100	0xbd5e3991	-0.05425412
101	0x3d4ebd4e	0.050473504
102	0x3d2947f6	0.041328393
103	0xbd9f7b70	-0.07787216
104	0xbb73a4c4	-0.0037177065
105	0x3c8a7709	0.016902464
106	0xbd2aacc2	-0.04166866
107	0x3d5bdd64	0.05367793
108	0xbd3477d4	-0.04405959
109	0xbc679cba	-0.014136488
110	0x3c2e280d	0.010629666
111	0x3db2a677	0.08723157
112	0x3ce1b1f6	0.027550679
113	0xbd40cfad	-0.047073055
114	0xbdd1a99f	-0.10237431
115	0xbd86b481	-0.06577397
116	0xbcabf92c	-0.020992838
117	0xbd6ab114	-0.05729778
118	0xbc33c074	-0.010971177
119	0xbd02405d	-0.031799663
120	0xbd8af40e	-0.06784831
121	0xbce8721c	-0.028374724
122	0xbd5e0030	-0.054199398
123	0xbdb41379	-0.087927766
124	0xbca9cff2	-0.020729039
125	0x3cb0e673	0.021594262
126	0x3b16a8dd	0.0022988834
127	0x3cd82ca4	0.026388474
128	0xbdbf6ea7	-0.09347277
129	0xbdc90da4	-0.09817055
130	0x3cd3db13	0.025861299
131	0x3d870692	0.0659305
132	0xbcb4cfd7	-0.022071762
133	0xbdaa0fa7	-0.08303767
134	0xbcf5e816	-0.030017894
135	0x3c5ca352	0.013466673
136	0x3d19d464	0.037556067
137	0x3cb862bc	0.022508018
138	0xbd27972d	-0.040915657
139	0xbd787b12	-0.060664244
140	0xbd711e33	-0.05886669
141	0x3cdda41f	0.027055798
142	0x3c3de392	0.0115899015
143	0x3d2f7fa6	0.042846344
144	0xbc9271e8	-0.01787658
145	0xbbb6920e	-0.0055716103
146	0x3d5f7b57	0.054560985
147	0xbd2bc02e	-0.041931324
148	0x3d307205	0.043077487
149	0xbdaad799	-0.08341903
150	0x3ad808f9	0.0016482166
151	0xbd1721e2	-0.036897548
152	0xbcb3c1ec	-0.021943055
153	0xbd2d2677	-0.04227301
154	0x3da1b751	0.07896293
155	0xbd5e6670	-0.05429691
156	0x3d5b7e6b	0.05358736
157	0x3cd0bb2e	0.02547988
158	0xbda6dac7	-0.08147197
159	0xbd8e59c9	-0.06950719
160	0x3d828a08	0.063739836
161	0xbd6de814	-0.058082655
162	0xbd99f2d4	-0.07517019
163	0xbbe5d175	-0.0070134946
164	0xbcc94c49	-0.024572508
165	0x3d7c19af	0.06154793
166	0x3c181aad	0.009283704
167	0xbcac23b3	-0.021013116
168	0x3d9b3e89	0.07580287
169	0x3d5bee3e	0.053694002
170	0xbbfd5b50	-0.0077318326
171	0xbbdef844	-0.006804498
172	0x3d360b37	0.04444429
173	0xbcf9f0eb	-0.030510386
174	0xbc9ad451	-0.018900068
175	0xbd396a84	-0.045267597
176	0x3d247ebc	0.040159926
177	0xbd693e8f	-0.056944426
178	0x3c7ee84e	0.015558315
179	0x3d0e8e99	0.03480396
180	0xbcf72cd1	-0.030172737
181	0xbd3b16f3	-0.045676183
182	0xbc05ab95	-0.008158584
183	0xbd84dd8f	-0.064875714
184	0x3d504a0e	0.050851874
185	0x3cb9c327	0.022676064
186	0x3da86cff	0.08223914
187	0x3d91bbaa	0.07115872
188	0x3cf4a1d3	0.02986232
189	0xbc38769d	-0.011258748
190	0x3c038701	0.008027793
191	0x3d8c563d	0.06852386
192	0x3c8ea847	0.017414225
193	0xbd6b02ea	-0.057375826
194	0x3d276f8f	0.040877875
195	0xbd40963e	-0.047018282
196	0x3d570b99	0.052501295
197	0xbcc6b7df	-0.024257598
198	0xbc5bda9d	-0.013418821
199	0xbd9f564f	-0.07780134
200	0xbd93ce82	-0.072171226
201	0x3d12e0ca	0.035858907
202	0x3cc51f5b	0.024062803
203	0x3c4f2d3a	0.01264506
204	0x3ac09938	0.00146941
205	0x3d6ddd07	0.058072116
206	0x3d965930	0.0734123
207	0xbccd0db7	-0.025030954
208	0xbca7f185	-0.020500908
209	0x3ce21e01	0.027602198
210	0x3d34182d	0.04396837
211	0x3b65870a	0.0035023117
212	0xbc98d808	-0.0186577
213	0x3cee3ed2	0.02908269
214	0x3d4e2556	0.050328575
215	0xbd905760	-0.070479155
216	0x3d9d7205	0.07687763
217	0xbcab2c4e	-0.02089515
218	0x3ccca2c6	0.02497996
219	0xbd846542	-0.06464626
220	0x3d4c293a	0.049844004
221	0xbdaa8c26	-0.083275124
222	0xbc4bf926	-0.012449538
223	0x3d892d23	0.06698062
224	0xbd862bb7	-0.06551307
225	0x3cfeb55d	0.03109234
226	0xbc20bc0a	-0.009810457
227	0x3dc6677b	0.09687706
228	0xbc36ad85	-0.011149769
229	0xbd95340a	-0.07285316
230	0x3dc3cb94	0.09560314
231	0xbc202b84	-0.009776
232	0x3c252bc9	0.01008124
233	0xbca242e8	-0.019807294
234	0xbd80c5e5	-0.062877454
235	0x3d9542d7	0.07288139
236	0x3cd3c979	0.025852906
237	0x3c8023bc	0.01564204
238	0xbd278c0f	-0.040905055
239	0x3b3d5799	0.0028891324
240	0x3d33a45d	0.04385792
241	0x3dd2dab1	0.10295618
242	0x3cdb2420	0.026750624
243	0xbbc9a582	-0.0061537633
244	0x3af88676	0.0018960971
245	0xbd201610	-0.03908354
246	0xbd70d465	-0.058796305
247	0x3db66512	0.089059964
248	0xbd2229eb	-0.039590757
249	0x3b596c0e	0.0033175978
250	0xbc5f8f99	-0.013645076
251	0xbd870758	-0.065931976
252	0xbd98392f	-0.07432782
253	0x3d6574b3	0.056019496
254	0xbdb3e609	-0.0878411
255	0xbc85eb9f	-0.016347704

cnn_model.3.bias f4 [16]
0	0x3cb2aba0	0.021810353
1	0x3d809e70	0.062802196
2	0x3c25a446	0.010109967
3	0xbcf20096	-0.029541295
4	0xbd8a274c	-0.067457765
5	0xbd9c8e31	-0.07644308
6	0xbc3a22c5	-0.011360829
7	0x3c8d56dc	0.017253332
8	0xbcb19e77	-0.021682007
9	0x3ca26569	0.019823747
10	0x3c47c3f5	0.012192716
11	0x3d1a2be0	0.0376395
12	0x3d7157ec	0.05892174
13	0x3c8aeaad	0.016957605
14	0xbd3e3a23	-0.046442162
15	0x3d12ef5e	0.03587281

fc_model.0.weight f4 [120, 256]
0	0xbc3ad58a	-0.011403451
1	0xbcfe3cb3	-0.031034803
2	0xbd5fcc45	-0.054638166
3	0xbc7c72cb	-0.015408228
4	0xbd6d9aec	-0.058009073
5	0xbd2d8003	-0.04235841
6	0xbc71f779	-0.014768475
7	0xbd4ee225	-0.050508637
8	0x3d253080	0.040329456
9	0x3d0e1432	0.03468723
10	0x3d3815ec	0.04494278
11	0x3b13a244	0.0022527138
12	0x3d0b3f15	0.033995707
13	0xbd46a118	-0.048493475
14	0x3c2140f9	0.009842151
15	0xbd37c108	-0.044861823
16	0xbc6632d7	-0.014050207
17	0x3d38434a	0.044986047
18	0xbd0e758a	-0.034780063
19	0x3cb004e3	0.021486705
20	0xbd575af3	-0.05257697
21	0x3dafdbd4	0.08586851
22	0x3d70422d	0.05865686
23	0xbd72335c	-0.05913101
24	0x3c090e9e	0.008365301
25	0xbceb4a86	-0.028722059
26	0x3d01b9cd	0.031671334
27	0xbd475f02	-0.04867459
28	0x3c85de9c	0.0163415
29	0xbbb9ad23	-0.0056663915
30	0xbd453936	-0.048150264
31	0x3b97dfe9	0.0046348465
32	0xbb356923	-0.0027681075
33	0xbd5fe636	-0.054662906
34	0x3c9f7421	0.019464554
35	0xbd7673a3	-0.060168874
36	0xbc9aff12	-0.018920455
37	0x3d19d507	0.037556674
38	0x3ce49fed	0.02790829
39	0xbd2a401e	-0.041565053
40	0xbc3ee158	-0.011650406
41	0xbdc53c5f	-0.096306555
42	0x3d607cf2	0.054806657
43	0x3d59db17	0.053187456
44	0xbc97f392	-0.01854876
45	0xbd235086	-0.039871715
46	0x3c4aa2a5	0.012367879
47	0xbcd72a8b	-0.026265403
48	0xbcf7d132	-0.03025112
49	0x3c2a87ae	0.010408325
50	0x3c4cefde	0.012508361
51	0x3d0e07aa	0.034675278
52	0x3c44040f	0.011963858
53	0x3d5a6325	0.053317208
54	0xbcc6dede	-0.024276193
55	0x3d488da1	0.048963193
56	0x3c339517	0.010960839
57	0xbcc1e078	-0.023666605
58	0xbc870a11	-0.016484292
59	0x3cc76f4f	0.024345068
60	0x3d405e57	0.04696497
61	0x3d5e1eb8	0.054228514
62	0xbd07a73a	-0.033118464
63	0x3c56bacb	0.013106058
64	0x3cadc99e	0.021214303
65	0x3dbba418	0.09162158
66	0xbe1e9416	-0.15486178
67	0xbbec1614	-0.0072047804
68	0xbd26fd52	-0.04076893
69	0xbc43723c	-0.011929091
70	0x3dae0166	0.084963605
71	0x3ccbf8b7	0.02489887
72	0x3d6d641e	0.057956807
73	0x3d87a7fd	0.06623838
74	0x3ca7e369	0.02049418
75	0x3d1e9081	0.03871203
76	0x3c9ba6d1	0.019000443
77	0xbb94921e	-0.00453402
78	0x3d4e735a	0.050402977
79	0xbc6923da	-0.014229739
80	0xbc5bf7f9	-0.0134258205
81	0x3d85113e	0.06497429
82	0xbd520cd5	-0.05128177
83	0xbd123319	-0.03569326
84	0x3d26210b	0.040558856
85	0x3bb3747b	0.005476532
86	0x3d6886c8	0.056769162
87	0xbca48e74	-0.020087458
88	0x3b82c634	0.003990913
89	0xbd91d25b	-0.071202
90	0x3c2e5203	0.01063967
91	0xbbb5bd09	-0.0055462164
92	0xbde95107	-0.11392408
93	0xbd8d05b1	-0.06885851
94	0xbd8b193b	-0.06791922
95	0xbc1f1f9a	-0.009712124
96	0xbd3969f1	-0.04526705
97	0xbcb8590f	-0.022503404
98	0x3d4c36eb	0.04985706
99	0x3db0f707	0.08640867
100	0xbd761bb4	-0.060085014
101	0xbd1425c7	-0.03616884
102	0x3d0b7190	0.03404385
103	0xbc98375f	-0.01858109
104	0xbd4b4dfb	-0.049634915
105	0x3bc4674d	0.0059937597
106	0xbcc60049	-0.024170058
107	0xbd309cd8	-0.043118328
108	0xbd5f859b	-0.054570775
109	0xbc5cac04	-0.013468746
110	0xbcc049d4	-0.023472704
111	0x3d0cd69d	0.03438436
112	0x3d2857c4	0.041099325
113	0xbcbed426	-0.02329452
114	0xbdc6cd82	-0.09707166
115	0xba267f79	-0.00063513924
116	0x3da1af56	0.07894771
117	0xbda868dd	-0.08223126
118	0xbce35a40	-0.027752995
119	0x3d52a363	0.05142535
120	0xbd89bc34	-0.0672535
121	0xbca1e35c	-0.019761734
122	0x3d9eff21	0.07763506
123	0xbd5b46ec	-0.053534433
124	0x3d05f36c	0.03270285
125	0xbc21c025	-0.009872471
126	0xbd504f6b	-0.05085699
127	0x3b991ebf	0.0046728547
128	0xbd986bb2	-0.07442416
129	0xbdac7e45	-0.084225215
130	0xbd3131fa	-0.043260552
131	0xbd84f3d6	-0.064918205
132	0xba67778f	-0.00088297663
133	0x3d446393	0.047946524
134	0xbcca9655	-0.024729887
135	0x3cd8f153	0.02648226
136	0xbc106068	-0.008812048
137	0xbbd504fb	-0.006500838
138	0x3d41fda4	0.04736103
139	0xbb0ac6d2	-0.0021175635
140	0xbd6148ac	-0.055000946
141	0x3d88b15f	0.06674456
142	0x3cc41b92	0.023938928
143	0xbcfc1099	-0.030769633
144	0x3bd31b4d	0.0064424635
145	0xbd00ee9b	-0.031477552
146	0xbc30d0ce	-0.01079197
147	0x3cacb252	0.021081124
148	0xbd17c34e	-0.03705149
149	0x3d8666d6	0.06562583
150	0xbc82c2af	-0.015961973
151	0xbc92eab8	-0.017934188
152	0x3d0aeba0	0.033916116
153	0xbd546165	-0.051850695
154	0x3d27b5c4	0.04094483
155	0xbd64b646	-0.055837892
156	0xbb2743f3	-0.0025522679
157	0xbd6d9f0a	-0.058013
158	0x3ce3439d	0.027742201
159	0xbc8ce280	-0.017197847
160	0x3af14132	0.001840627
161	0x3e1bb604	0.15206152
162	0x3ddcf46b	0.107888065
163	0x3dbaba65	0.09117583
164	0xbd7ae909	-0.061257396
165	0x3c8c0f0c	0.017097019
166	0x3d05587d	0.032555092
167	0xbc7f2834	-0.01557355
168	0xbd526951	-0.05136997
169	0x3cab4b69	0.020909982
170	0xbdd1d87d	-0.1024637
171	0xbde90f86	-0.11379914
172	0x3e09b7f7	0.13449083
173	0xbda9eb42	-0.08296825
174	0xbda04762	-0.07826115
175	0x3b92a6e0	0.0044754595
176	0x3d3c0999	0.04590759
177	0xba4bf6ce	-0.0007780612
178	0x37487b3a	1.194962e-05
179	0xba844846	-0.001009234
180	0xbcbeb4f5	-0.023279646
181	0x3ce41fb8	0.027847156
182	0x3d97eed3	0.07418599
183	0x3cfc0fb5	0.030769208
184	0x3d121415	0.035663683
185	0x3cff4237	0.031159503
186	0x3d6ce7b0	0.057838142
187	0xbc2a68bf	-0.01040095
188	0x3c767ef2	0.015044915
189	0xbd1988b3	-0.037483882
190	0xbcb576dc	-0.022151403
191	0xbd6b7491	-0.057484213
192	0xbcd308c8	-0.025761023
193	0xbb864db6	-0.0040986193
194	0xbd4578f4	-0.048211053
195	0xbd8636e2	-0.06553437
196	0xbdaeee02	-0.0854149
197	0xbd372f90	-0.044723094
198	0xbd4c0fb5	-0.049819667
199	0x3dba624b	0.09100779
200	0x3bed7427	0.0072465125
201	0xbd0245d2	-0.031804867
202	0x3d682d70	0.056683958
203	0x3d84f9a1	0.064929254
204	0x3cc88d7d	0.02448153
205	0xbc2eae4c	-0.010661673
206	0xbcbbc127	-0.02291925
207	0xbca187bf	-0.01971805
208	0xbd195dac	-0.037442848
209	0xbcf290ef	-0.029610125
210	0x3bf19838	0.007372882
211	0xbcc2c962	-0.023777667
212	0x3c113c68	0.0088645
213	0xbbed2232	-0.0072367424
214	0xbd82d2e7	-0.06387883
215	0x3cc67ba9	0.024228888
216	0xbcaa4d41	-0.02078879
217	0xbb29078b	-0.002579185
218	0xbd4898a9	-0.048973713
219	0xbd630a7e	-0.055429928
220	0x3d16dd7f	0.03683233
221	0xbc8eefd2	-0.01744834
222	0xbda99616	-0.0828058
223	0xba3b8a34	-0.0007154078
224	0xbd5e1015	-0.054214556
225	0x3d99143c	0.074745625
226	0x3c550cd2	0.013003545
227	0x3cd3c923	0.025852745
228	0xbb0c63bf	-0.0021421758
229	0xbd30372e	-0.043021373
230	0x3d72b82f	0.059257682
231	0xbcd55040	-0.026039243
232	0x3be95d5b	0.0071217245
233	0x3d271cf8	0.04079911
234	0xbc83702d	-0.0160447
235	0x3d1ba2df	0.037997123
236	0x3d13ad59	0.03605399
237	0x3d065b89	0.03280214
238	0x3b0a1ae8	0.0021073166
239	0x3c6eb42c	0.0145693235
240	0xbd8497da	-0.06474276
241	0x3d60deeb	0.05490009
242	0x3dcdb48d	0.10044203
243	0xbc1ff8fc	-0.009763952
244	0xbc719add	-0.014746395
245	0xbd43de5e	-0.047819488
246	0x3d59a541	0.053136114
247	0xbc2dc48e	-0.010605944
248	0x3c1a54bc	0.009419616
249	0xbdd63557	-0.104593925
250	0xbd195464	-0.037433997
251	0x3d5677c9	0.05236033
252	0xbb7bc6d7	-0.0038418078
253	0x3d6caa43	0.05777956
254	0xbd02141e	-0.031757466
255	0xbd1a80fb	-0.03772066

fc_model.0.bias f4 [120]
0	0x3d249217	0.040178385
1	0xbd47eab5	-0.04880782
2	0x3d537efd	0.051634777
3	0x3d6b4879	0.057442162
4	0x3b8b04d4	0.004242519
5	0xbc8a6cae	-0.016897526
6	0xbcde795c	-0.027157478
7	0x3d045770	0.03230995
8	0xbcdc7d8b	-0.026915332
9	0x3cbcafbb	0.023033014
10	0xbd133474	-0.035938695
11	0x3d57fd6b	0.052731913
12	0x3c5562ba	0.0130240265
13	0xbc13d5cc	-0.009023141
14	0x3d2db863	0.042412173
15	0xbb19f3e8	-0.0023491327
16	0x3c5a8c34	0.013339091
17	0x3d36f2ec	0.044665262
18	0x3d3bbc08	0.045833617
19	0xbd8050d6	-0.06265418
20	0xbc7d4493	-0.015458244
21	0x3d40b9fd	0.047052372
22	0xbca6f1af	-0.020378916
23	0x3d28b4d1	0.041188065
24	0xbd4c1d0b	-0.049832385
25	0xbca59a43	-0.02021516
26	0x3cffc0cb	0.03121986
27	0x3b909951	0.004412808
28	0xbcc39cda	-0.023878504
29	0xbd1a304c	-0.037643716
30	0xbd0000a8	-0.031250626
31	0x3cd14790	0.025546819
32	0xbc868c0a	-0.016424198
33	0x3d8f7f9b	0.07006761
34	0xbc8aab1f	-0.0169273
35	0xbd33f614	-0.04393585
36	0x3c3d850e	0.011567367
37	0xbb69c846	-0.003567235
38	0xbd2b8bf0	-0.0418815
39	0x3d8bb1e4	0.06821039
40	0xbce0637a	-0.027391184
41	0x3bfe9d4e	0.007770217
42	0x3c5d131a	0.013493324
43	0xbc528b9a	-0.012850666
44	0x3d849128	0.06472999
45	0xbc53ce72	-0.012927638
46	0x3d3f497c	0.04670094
47	0x3d2bcb7e	0.041942112
48	0x3b5af44a	0.0033409768
49	0xbcf083c0	-0.029359698
50	0x3c42bfca	0.011886546
51	0xbd5dd036	-0.054153644
52	0xbd13f97d	-0.036126602
53	0xbd0b71b1	-0.03404397
54	0x3c1043d7	0.008805237
55	0x3d729df3	0.059232663
56	0xbd0db1ad	-0.034593273
57	0xbd4ebb4b	-0.050471585
58	0x3d4e6260	0.050386786
59	0x3c9161e9	0.017746883
60	0xbd857143	-0.065157436
61	0xbd937e19	-0.072017856
62	0xbd738480	-0.059452534
63	0xbd8bfb3e	-0.0683503
64	0xbb3d3420	-0.002887018
65	0x3b806044	0.0039177258
66	0x3ad11b8a	0.0015953642
67	0x3cd5f946	0.02611984
68	0x3d84aa23	0.064777635
69	0xbd798551	-0.060918156
70	0xbd6aeb04	-0.057353035
71	0x3c86c64b	0.016451975
72	0x3d87af8e	0.06625281
73	0x3c9f1622	0.019419733
74	0xbc5a0170	-0.013306007
75	0x3d1f7dc0	0.038938284
76	0x3d80414e	0.06262456
77	0x3c90609e	0.017624196
78	0xbcc965b6	-0.024584632
79	0x3d95efc0	0.07321119
80	0x3d346d92	0.044049807
81	0xbc035992	-0.008016961
82	0x3cdfe82d	0.02733239
83	0xbd8a15a7	-0.06742411
84	0xbcdac205	-0.026703844
85	0x3cd31eb8	0.025771484
86	0x3d1fb54e	0.038991265
87	0x3ca47999	0.020077514
88	0xbcf0c654	-0.029391445
89	0xbd060738	-0.032721728
90	0x3cee5482	0.02909303
91	0xbcbb6b9e	-0.022878464
92	0xbd228677	-0.039679017
93	0x3cf954a5	0.03043587
94	0xbbcf4a53	-0.006325999
95	0xbd5f0e67	-0.054457095
96	0xbcfa355c	-0.030543022
97	0x3d20e7cd	0.039283562
98	0x3d741201	0.059587482
99	0x3cc0a420	0.02351576
100	0xbcf795bf	-0.030222772
101	0xbd0f9e65	-0.035063166
102	0xbd375ab1	-0.044764224
103	0x3c25b13f	0.01011306
104	0xbcd63755	-0.026149431
105	0xbc47d260	-0.012196153
106	0xbcf7a75f	-0.030231176
107	0xbc053379	-0.008129948
108	0x3cd4df81	0.025985481
109	0xbc6bda07	-0.0143952435
110	0x3c54e524	0.0129940845
111	0x3d3f52d1	0.04670984
112	0x3b8b855c	0.004257841
113	0x3d173c0a	0.036922492
114	0xbab71265	-0.0013967274
115	0xbbb15625	-0.0054118806
116	0xbd3d92ad	-0.04628246
117	0xbc1f5c5b	-0.009726609
118	0x3c8169d1	0.015797528
119	0xbd607553	-0.05479939

fc_model.2.weight f4 [84, 120]
0	0xbb34bbca	-0.0027577751
1	0xbd1f201a	-0.038848974
2	0x3d593490	0.053028643
3	0xbd071b89	-0.032985244
4	0xbe08c766	-0.13357314
5	0x3d1d54af	0.03841084
6	0xbd91b36c	-0.071143
7	0x3d5975c4	0.053090826
8	0x3e37eedb	0.1796221
9	0x3d0b1820	0.033958554
10	0x3d85a9de	0.0652654
11	0xbd8eac35	-0.0696644
12	0x3d10dec9	0.035368714
13	0xbac4d63f	-0.0015017464
14	0xbdd5fb56	-0.10448329
15	0x3daee806	0.08540349
16	0xbd6133b4	-0.05498095
17	0x3d946a05	0.07246784
18	0xbdd2eba3	-0.102988504
19	0x3e263487	0.16230975
20	0xbd66257e	-0.0561881
21	0xbe1e5f51	-0.15466048
22	0x3cd2abc0	0.025716662
23	0x3dd76dd6	0.105189964
24	0xbd26f2e8	-0.040758997
25	0x3c9b1918	0.018932864
26	0xbdcab364	-0.09897497
27	0x3de5998c	0.11210927
28	0xbd0d3be2	-0.034480937
29	0x3d42bc7f	0.047543045
30	0x3d04dbbe	0.032436125
31	0xbd2d2aab	-0.04227702
32	0xbd50232f	-0.050814804
33	0xbddd2acc	-0.107991785
34	0xbe09a97a	-0.13443556
35	0x3d7c56dd	0.061606277
36	0xbd90e6e0	-0.07075286
37	0xbd0e09eb	-0.034677427
38	0xbd69b8bb	-0.05706094
39	0xbd2c0935	-0.042000968
40	0xbca2741d	-0.019830758
41	0x3de94d10	0.11391652
42	0xbe08c40b	-0.13356034
43	0xbcc9fba0	-0.024656117
44	0xbd385d10	-0.045010626
45	0xbd38a31e	-0.045077436
46	0x3e224b82	0.15849116
47	0xbbbc972e	-0.0057553267
48	0x3d4ccc4b	0.049999516
49	0xbdae5504	-0.08512309
50	0xbe30f31a	-0.17280236
51	0x3c299fdd	0.010353056
52	0xbb3c800b	-0.0028762843
53	0x3df895cf	0.12137949
54	0xbda14cfa	-0.0787601
55	0x3c34adf5	0.011027803
56	0x3dbcb900	0.092149734
57	0xbda1ed98	-0.079066455
58	0xbe18a6e1	-0.14907409
59	0xbdb5fb0a	-0.088857725
60	0x3d045ecf	0.03231698
61	0x3d52c5ff	0.051458355
62	0x3e145f66	0.14489517
63	0x3d4a7784	0.049430385
64	0x3d4e04bf	0.050297495
65	0xbdbcb174	-0.09213534
66	0x3d35601a	0.044281103
67	0xbdcb6258	-0.09930867
68	0xbe2a13a5	-0.16609056
69	0x3dda5488	0.10660654
70	0x3d821cfb	0.06353184
71	0x3dd4863a	0.10377164
72	0xbd87c32c	-0.06629023
73	0xbde5a4e4	-0.11213091
74	0xbd92ed46	-0.071741626
75	0xbd18961f	-0.03725254
76	0xbdb5846f	-0.0886315
77	0x3dbca129	0.09210426
78	0x3df7a1ef	0.12091433
79	0xbe06f410	-0.1317904
80	0x3dba0651	0.09083236
81	0x3d825121	0.0636313
82	0x3ca6147c	0.02027344
83	0x3dc6e259	0.09711141
84	0xbca45047	-0.02005781
85	0x3da5f6f3	0.081037425
86	0xbdaa1851	-0.08305419
87	0xbcc09550	-0.023508698
88	0xbc6a9e77	-0.0143200075
89	0x3e1daa78	0.1539706
90	0xbabd9fcc	-0.0014467179
91	0x3d77b9ff	0.060480114
92	0x3e65d07d	0.22442813
93	0x3d882dc2	0.066493526
94	0x3e09e930	0.1346786
95	0xbd2a7fe0	-0.041625857
96	0x3e1c8b68	0.15287554
97	0xbe0497e0	-0.1294856
98	0xbc8362a1	-0.01603824
99	0xbd132a5f	-0.03592908
100	0x3d6c7a13	0.057733607
101	0x3df6cdeb	0.120509945
102	0x3d86f461	0.0658958
103	0xbdb264e6	-0.08710651
104	0x3dcc120c	0.0996438
105	0xbd8e55b8	-0.06949943
106	0x3e1053e1	0.14094497
107	0xbdc08b98	-0.094016254
108	0xbd1c9a0a	-0.03823284
109	0xbdc12250	-0.09430373
110	0xbd942e0c	-0.07235345
111	0xbca58b36	-0.020207983
112	0x3d916e07	0.07101064
113	0x3b90e6e5	0.004422056
114	0xbdd04c18	-0.10170764
115	0x3db3af09	0.0877362
116	0x3ddb0594	0.10694423
117	0x3d1db0ed	0.038498808
118	0xbd8a17b7	-0.067428045
119	0xbe0af61e	-0.13570449
120	0x3c11fec3	0.008910838
121	0x3cb39a2a	0.021924097
122	0xbe13caca	-0.14432827
123	0x3c928d4f	0.017889647
124	0x3e2f1e5c	0.17101425
125	0xbd63082c	-0.055427715
126	0xbd0eef79	-0.034896348
127	0xbe03a1d9	-0.12854709
128	0xbdac3e76	-0.08410351
129	0xbe01db49	-0.12681307
130	0xbdbc616c	-0.09198269
131	0x3dbc151b	0.09183713
132	0xbd4803c3	-0.048831712
133	0x3dbf074f	0.09327566
134	0x3db8bb9f	0.09020161
135	0xbcb7cd70	-0.022436827
136	0x3dce5e4b	0.10076579
137	0x3b99bb75	0.004691536
138	0x3d6e8252	0.058229752
139	0xbdb16b29	-0.08663017
140	0x3e0ba9ab	0.13638942
141	0x3e0feaaf	0.14054368
142	0x3da8b597	0.082377605
143	0xbde47160	-0.11154437
144	0xbcf4712c	-0.02983912
145	0x3d858969	0.065203495
146	0x3d22e942	0.039773233
147	0xbdf31b65	-0.118704595
148	0x3e04c299	0.12964858
149	0x3bc27ca8	0.0059352703
150	0xbc29344e	-0.010327412
151	0x3e12a6ff	0.14321516
152	0x3d9f1cf1	0.07769192
153	0x3e1e860d	0.15480824
154	0x3dc79894	0.09745899
155	0xbe420183	-0.18945889
156	0x3e346637	0.17617117
157	0xbe063041	-0.13104345
158	0x3cf6be09	0.030119913
159	0x3db9df58	0.090758026
160	0xbdf5f4bb	-0.12009569
161	0x3c38813b	0.01126128
162	0x3e2d4d78	0.16924083
163	0xbcb8581c	-0.022502951
164	0xbc4a81af	-0.012360021
165	0x3cd8df3a	0.02647363
166	0xbe31147b	-0.17292969
167	0x3bd1415b	0.006385965
168	0xbd097eca	-0.03356818
169	0x3c9a57d8	0.018840715
170	0x3e252a89	0.16129507
171	0xbd68b259	-0.05681071
172	0x3e17b4d0	0.14815068
173	0xbd4f65b6	-0.05063411
174	0x3dc4fff1	0.096191294
175	0x3d584806	0.052803062
176	0xbe1a216a	-0.15051809
177	0x3cbf2db2	0.023337219
178	0x3dcda8c3	0.10041954
179	0xbd49c6e4	-0.049261943
180	0xbe26cb55	-0.16288503
181	0xbc955722	-0.018230025
182	0xbdce3bb7	-0.100699835
183	0xbdc29464	-0.095009595
184	0xbc87713d	-0.016533488
185	0x3defebcd	0.11714897
186	0x3b71d16a	0.0036898502
187	0x3e1300f3	0.14355831
188	0x3e2b8975	0.16751654
189	0xbcd94483	-0.026521927
190	0xbc74dcdb	-0.014945234
191	0x3d1f75c3	0.038930666
192	0x3da9cfdf	0.082916014
193	0x3dc3b28b	0.09555539
194	0x3d298329	0.04138485
195	0x3df52c4d	0.1197134
196	0x3df952d3	0.121740006
197	0xbe0f33a7	-0.13984548
198	0xbe6934a8	-0.22773993
199	0x3d5d7a6d	0.054071832
200	0xbceb96aa	-0.028758366
201	0xbde5d742	-0.11222698
202	0xbd6eaca2	-0.058270104
203	0xbd8e726c	-0.06955418
204	0xbe1d8279	-0.15381803
205	0xbd19b954	-0.03753026
206	0x3d4b222c	0.049593136
207	0x3da48e42	0.08034946
208	0xbda8f0cd	-0.08249054
209	0xbdf0c149	-0.11755616
210	0xbc6e1c34	-0.014533091
211	0xbe2fd964	-0.17172772
212	0xbe294f99	-0.1653427
213	0xbe301965	-0.17197187
214	0xbe0108f5	-0.12601073
215	0x3cb80702	0.02246428
216	0xbdbc9637	-0.09208339
217	0x3d0899fb	0.033349972
218	0x3da3e24e	0.080021486
219	0x3e64897b	0.2231807
220	0xbb0ec9d7	-0.0021787786
221	0xbe20c625	-0.15700586
222	0xbd65e3f8	-0.05612561
223	0x3d91eed0	0.07125628
224	0xbd190d52	-0.03736622
225	0x3d9bf095	0.07614247
226	0xbe5625c8	-0.2091285
227	0x3d434a53	0.047678303
228	0x3d8e3bb6	0.06944983
229	0x3d9dc1e3	0.077029966
230	0x3de8e3ab	0.11371549
231	0x3dfbbf41	0.12292338
232	0xbdf7b7e8	-0.12095624
233	0x3de939eb	0.11388
234	0x3d6cb7e9	0.057792578
235	0xbd3cb188	-0.046067744
236	0xbe0d4fd2	-0.1379998
237	0xbd83a082	-0.06427099
238	0x3e794ecb	0.24346463
239	0x3e1b1df5	0.15148146
240	0xbd8a9606	-0.06766896
241	0x3d7eec3a	0.062237002
242	0xbe11fe64	-0.14257199
243	0x3e27c990	0.16385484
244	0x3e56d27c	0.20978731
245	0xbd439e00	-0.047758102
246	0xbd40d29e	-0.04707586
247	0x3c8ea430	0.017412275
248	0xbdb88e01	-0.0901146
249	0xba5d815f	-0.0008449759
250	0xbd941034	-0.07229653
251	0xbc71da4e	-0.014761521
252	0xbc8a931b	-0.016915848
253	0x3e16f1a0	0.1474061
254	0x3de1f24e	0.11032544
255	0xbe149f8d	-0.14513989

fc_model.2.bias f4 [84]
0	0x3d9c4f22	0.07632281
1	0x3d154330	0.036441028
2	0xbd2dddc0	-0.042447805
3	0x3d56a1c6	0.052400373
4	0x3d72b71a	0.05925665
5	0xbcaad10c	-0.020851634
6	0xbd8eb757	-0.06968563
7	0xbd4bd4bd	-0.04976343
8	0xbd05e6a8	-0.032690674
9	0x3c2b17be	0.010442672
10	0x3a580716	0.0008240802
11	0xbd800592	-0.062510625
12	0xbd50d986	-0.050988697
13	0x3cb3e5c7	0.021960152
14	0xbd61ee0d	-0.055158664
15	0x3c882b4f	0.016622214
16	0xbd508900	-0.050911903
17	0xbd697e94	-0.05700548
18	0x3cc7c234	0.024384595
19	0xbd9ac59c	-0.07557222
20	0xbd10c65a	-0.035345413
21	0xbd06dc2b	-0.032924812
22	0x3d5ec290	0.054384768
23	0x3c2e8115	0.010650893
24	0xbda59105	-0.08084301
25	0xbd8a49d0	-0.0675236
26	0xbcb67b80	-0.022275686
27	0xbd1b9676	-0.037985288
28	0x3da3b467	0.079933934
29	0xbce8b278	-0.028405413
30	0xbae64976	-0.00175695
31	0x3d2d85b9	0.042363856
32	0xbd6ad7af	-0.0573346
33	0x3d560a2d	0.052255798
34	0x3d92f90f	0.071764104
35	0xbd88b14a	-0.0667444
36	0x3d5a100b	0.053237956
37	0x3c54b8f6	0.012983551
38	0x3aedbb7e	0.0018137542
39	0x3d32f98b	0.043695014
40	0xbd80b90a	-0.062852934
41	0xbc2ddf48	-0.010612316
42	0x3d7f6852	0.062355347
43	0x3bd3f50f	0.0064684222
44	0xbcfc2e4f	-0.0307838
45	0x3cab1ab3	0.020886755
46	0xbd246c2f	-0.040142234
47	0x3cca065c	0.024661236
48	0x3cbe5f4d	0.023238802
49	0x3da2002e	0.079101905
50	0x3d58d8ad	0.052941013
51	0x3d3f60d0	0.046723187
52	0xbd645d15	-0.055752832
53	0xbd1f748b	-0.038929503
54	0x3ce9fa48	0.028561726
55	0x3d9d94a0	0.076943636
56	0xbb2511ed	-0.0025187687
57	0x3d84ce5f	0.06484675
58	0x3d0b345f	0.03398549
59	0x3d40139a	0.046893694
60	0xbb969322	-0.0045951763
61	0x3db2e1c5	0.08734468
62	0x3d3c5ed8	0.045988888
63	0x3cf375f5	0.029719332
64	0xbaa8ebeb	-0.0012887692
65	0x3d77405d	0.060364116
66	0xbd9344ff	-0.07190894
67	0xbd9155ca	-0.07096441
68	0x3db840ff	0.08996772
69	0x3d83ff78	0.06445211
70	0x3dc507fd	0.09620664
71	0x3d5d9c44	0.054104105
72	0xbcfbd340	-0.03074038
73	0x3c6a76a6	0.014310515
74	0xbcdadeaf	-0.026717512
75	0xbc4cf331	-0.012509153
76	0xbd37e41c	-0.044895276
77	0x3d561dff	0.0522747
78	0xbd685195	-0.056718428
79	0x3d7dd63e	0.061971895
80	0x3d8e2aff	0.069417946
81	0x3c78e71c	0.0151918195
82	0xbd75a931	-0.059975807
83	0xbd178590	-0.03699261

fc_model.4.weight f4 [1, 84]
0	0x3e643034	0.22284013
1	0xbe329a28	-0.17441618
2	0xbe1f1497	-0.15535198
3	0x3e1ec98f	0.15506576
4	0x3e354029	0.17700256
5	0xbe49cd0a	-0.19707122
6	0xbe601a3f	-0.21885012
7	0xbe13ebff	-0.14445494
8	0xbe3199d0	-0.17343831
9	0xbe6bb3c6	-0.23017797
10	0xbe305961	-0.17221595
11	0xbe028880	-0.12747383
12	0x3e534b3b	0.20634167
13	0x3e47ffef	0.19531225
14	0x3e552317	0.20814167
15	0x3e2453f6	0.16047654
16	0x3e327ed4	0.17431194
17	0xbe25fc51	-0.16209532
18	0xbe6921ab	-0.2276675
19	0xbe2df3d7	-0.16987549
20	0x3e4c6cac	0.1996333
21	0x3e2a28c0	0.16617107
22	0x3e2f066e	0.17092296
23	0x3e3899ab	0.1802737
24	0x3e6492cd	0.22321625
25	0x3e2f27d9	0.17105044
26	0x3e35e969	0.1776482
27	0x3e74d38e	0.23908827
28	0xbe198ced	-0.14995165
29	0xbe20cc23	-0.15702872
30	0xbe4912e4	-0.19636112
31	0x3e505798	0.20345914
32	0xbe40aa29	-0.18814911
33	0x3e2e0ed4	0.16997844
34	0x3e647614	0.22310668
35	0x3e65b5c0	0.22432613
36	0x3e47538d	0.19465466
37	0xbe757b39	-0.23972787
38	0x3e402576	0.1876429
39	0x3e3adb3a	0.18247691
40	0x3e503932	0.20334318
41	0xbe4d4e10	-0.2004931
42	0x3e2f172a	0.1709868
43	0xbe2ceba5	-0.16886766
44	0xbe79802d	-0.24365301
45	0x3e71867c	0.23586458
46	0xbdf0a973	-0.1175107
47	0xbe3b1b84	-0.18272215
48	0xbdea3fa5	-0.114379205
49	0xbe276492	-0.16346958
50	0x3e238313	0.1596797
51	0x3e55a1a0	0.20862436
52	0x3e6b1f90	0.22961259
53	0x3e2d779c	0.16940159
54	0xbe7824a9	-0.24232735
55	0xbe27b0c9	-0.16376032
56	0x3e6e1947	0.2325183
57	0xbe7a18b9	-0.24423493
58	0x3e24a605	0.16078956
59	0x3e14769c	0.14498371
60	0x3e3869fb	0.18009178
61	0xbe09ba25	-0.13449915
62	0x3e2c5e2a	0.16832796
63	0x3e378357	0.17921196
64	0xbe341e0c	-0.17589587
65	0xbe67fe74	-0.2265566
66	0x3e56fe48	0.20995438
67	0xbdf56b4b	-0.11983355
68	0xbe516700	-0.20449448
69	0x3e1ac4cd	0.15114136
70	0xbe5f6547	-0.21815978
71	0x3e425e56	0.18981299
72	0x3e4929a4	0.19644791
73	0xbe4e8436	-0.20167622
74	0x3e6b107b	0.22955506
75	0x3e611d8b	0.21983926
76	0x3e88c805	0.26715103
77	0xbe415f6c	-0.18884057
78	0xbe5dd439	-0.21662988
79	0xbe251cdc	-0.1612429
80	0xbdeef363	-0.11667516
81	0x3e33ae15	0.17546876
82	0xbe1f7240	-0.15570927
83	0x3e71dfe3	0.23620562
